wrs/HuGroup_Qin/Shared_grasp_project/regrasp_test/checkpoint/hybrid_energy_model.pth (torch, 80872 bytes, 17 tensors)

discrete_net.0.weight f4 [64, 4]
0.08313276 0.41014913 -0.17203605 0.06844959 -0.18895921 -0.11308338 -0.30450374 -0.34423697
-0.22774468 -0.26184663 0.09982833 -0.16790845 -0.12410973 0.46613443 0.44354725 0.25396422
2.9309707e-11 0.18195663 0.12483968 0.004536268 0.105056316 -0.2321948 0.2261462 0.27289262
0.18219753 -0.25739238 -0.33079997 -0.41981477 0.29844123 0.029425383 0.13672073 -0.19630207
0.06586449 0.0051755384 0.1599635 0.04483495 0.02097324 -0.32487625 0.083311416 -0.3735813
0.0701873 -0.13384418 0.31520575 0.20782532 -0.18650147 0.16431588 -0.05024627 0.36154377
-0.0374263 0.16987167 0.17696786 -0.38383016 -0.2382449 -0.43333447 -0.0071585616 -0.4001651
0.1518827 0.34722337 0.16968949 -0.46476927 -0.07187395 -0.04685574 -0.10074579 0.37323928
0.44743398 -0.41536966 0.35961604 0.37858987 -0.13066733 0.124996796 0.17408104 -0.12060205
-0.15173832 -0.012807073 -0.15983264 -0.13233991 5.887974e-05 0.12541412 0.3962221 0.20814028
0.01432575 -0.33317888 -0.4382147 -0.43101496 -0.044722933 -0.054673735 0.20206687 -0.06328444
-0.44076136 0.0583116 -0.44436342 -0.14750901 0.38121974 0.279302 0.27754712 -0.41776958
0.24769858 -0.3906941 0.10309375 -0.34395626 -0.38961372 -0.025996512 -0.41823062 0.21111491
0.13297184 -0.062369842 0.23874904 -0.39506117 0.3972383 -0.00053294696 -0.46181962 0.011952456
-0.37594393 0.23775513 -0.34995148 0.09207333 -0.4550224 0.15406814 0.042673875 -0.2144774
-0.09628167 0.051821988 -0.2073584 -0.008229549 -0.35288078 -0.02439428 -0.3293209 -0.09779216
-0.1913145 -0.43899152 0.31637 0.44567597 0.36628377 3.705137e-05 -0.044298485 -0.41701564
-0.19974935 -0.24981527 -0.40567097 0.45517865 -0.034805983 0.07025143 -0.42930487 0.10327951
-0.2795097 0.39851215 -0.0076656165 -0.1496328 -0.1147411 0.320288 0.4690682 0.09916649
-0.042578515 -0.087623954 0.2993136 0.3770602 -0.39581734 0.0066836923 -0.39679366 0.427972
-0.19060987 -0.4011492 -0.24159104 0.17068651 -0.0006333607 -0.09138611 -0.29827625 -0.32713822
-0.17493725 0.2784105 0.14060357 -0.04379498 -0.44758916 -0.20115645 -0.39073446 0.12759714
-0.14840153 -0.35240817 0.29203832 0.12513196 0.2226988 0.17459391 0.3805004 -0.37719643
0.27424842 0.106803186 -0.14617579 -0.072450355 0.36256376 -0.15176721 -0.182729 0.29043642
0.011922662 -0.27772328 -0.334218 0.22091876 0.041724123 0.16654652 -0.12894027 0.21692142
-0.20683196 0.34924486 -0.27630037 0.015099807 -0.30602005 -0.24701017 0.13166907 -0.45319453
-0.40475217 0.20822568 -0.4328034 -0.14141703 0.35723728 0.18225798 -0.42472026 -0.20317449
-0.11453929 -0.24039334 -0.3396325 -0.4410831 -0.15860993 -0.092745885 -0.37495837 0.1245646
0.46899408 0.45837182 -0.27322114 0.19988957 0.26225492 -0.28514603 -0.37884167 -0.44547972
-0.38772354 0.41467896 0.11819373 0.10107329 -0.19371384 0.16445017 -0.3086313 0.20571443
-0.45343444 -0.14580606 0.15298966 -0.22165976 0.14606489 0.3495502 0.21660155 -0.042095143
-0.28869277 -0.27150893 0.30002838 0.09614754 0.3168101 -0.1432653 -0.13417177 0.17729408
00000000: 8241 aa3d 11ff d13e 382a 30be 4c2f 8c3d
00000010: 867e 41be 4298 e7bd eae7 9bbe d43f b0be
00000020: e735 69be c310 86be cc72 cc3d 31f0 2bbe
00000030: 3e2d febd 2ca9 ee3e a018 e33e 9907 823e
00000040: cce7 002e d752 3a3e f2ab ff3d f9a4 943b
00000050: c427 d73d 79c4 6dbe df92 673e 95b8 8b3e
00000060: fd91 3a3e efc8 83be 9d5e a9be f6f1 d6be
00000070: 4acd 983e 800d f13c 8500 0c3e 6903 49be
00000080: f6e3 863d 9097 a93b 79cd 233e daa4 373d
00000090: 12d0 ab3c 2e56 a6be 2d9f aa3d 0c46 bfbe
000000a0: 5cbe 8f3d 730e 09be a662 a13e 29d0 543e
000000b0: 3efa 3ebe 6c42 283e 08cf 4dbd 441c b93e
000000c0: 524c 19bd d7f2 2d3e 1037 353e 6385 c4be
000000d0: 79f6 73be 04de ddbe 5e92 eabb 71e2 ccbe
000000e0: 2387 1b3e 43c7 b13e 15c3 2d3e 3df6 edbe
000000f0: a632 93bd ceeb 3fbd cf53 cebd 3819 bf3e
00000100: 1116 e53e 55ab d4be 981f b83e 88d6 c13e
00000110: a8cd 05be 52fe ff3d 4d42 323e 35fe f6bd
00000120: 4a61 1bbe c2d4 51bc 2bab 23be 1d84 07be
00000130: a4f5 7638 8f6c 003e a0dd ca3e ba22 553e
00000140: 8db6 6a3c 6c96 aabe ad5d e0be fead dcbe
00000150: 652f 37bd 91f1 5fbd 9eea 4e3e 469b 81bd
00000160: 79ab e1be 25d8 6e3d 9a83 e3be 9a0c 17be
00000170: 3c2f c33e ac00 8f3e a81a 8e3e e5e5 d5be
00000180: b2a4 7d3e 0f09 c8be d122 d33d 091b b0be
00000190: 737b c7be a3f6 d4bc 5322 d6be 822e 583e
000001a0: c529 083e 8577 7fbd a17a 743e 7545 cabe
000001b0: d262 cb3e 77b5 0bba 9f73 ecbe 3cd4 433c
000001c0: b97b c0be 1576 733e d72c b3be f190 bc3d
000001d0: b2f8 e8be 0ac4 1d3e cdca 2e3d f79f 5bbe
000001e0: 532f c5bd 4b43 543d c355 54be 3bd5 06bc
000001f0: caac b4be 83d6 c7bc c09c a8be 4247 c8bd
00000200: f3e7 43be 7fc3 e0be 40fb a13e a42f e43e
00000210: 8c89 bb3e 9b67 1b38 5472 35bd 1383 d5be
00000220: 188b 4cbe 93cf 7fbe 1bb4 cfbe 2d0d e93e
00000230: b890 0ebd fbdf 8f3d d9cd dbbe 3584 d33d
00000240: e51b 8fbe c909 cc3e da2f fbbb 5739 19be
00000250: 62fd eabd cafc a33e b529 f03e cd17 cb3d
00000260: cf66 2ebd 3074 b3bd a23f 993e 090e c13e
00000270: 92a8 cabe e002 db3b 8a28 cbbe 251f db3e
00000280: 3c2f 43be 6e63 cdbe a463 77be 72c8 2e3e
00000290: 1e08 26ba a428 bbbd aab7 98be a97e a7be
000002a0: c022 33be d28b 8e3e 62fa 0f3e 5d62 33bd
000002b0: 682a e5be f5fb 4dbe 590e c8be d3a8 023e
000002c0: 92f6 17be d86e b4be 0c86 953e 9822 003e
000002d0: 270b 643e bfc8 323e f3d0 c23e e41f c1be
000002e0: 4a6a 8c3e a1bb da3d 1baf 15be da60 94bd
000002f0: f5a1 b93e dd68 1bbe 501d 3bbe 15b4 943e
00000300: 4557 433c bf31 8ebe 9f1e abbe 8738 623e
00000310: eae6 2a3d 2c8b 2a3e eb08 04be a620 5e3e
00000320: c2cb 53be 39d0 b23e 3e77 8dbe 2e65 773c
00000330: a9ae 9cbe 3cf0 7cbe 42d4 063e 1d09 e8be
00000340: ad3b cfbe 1d39 553e 6898 ddbe a0cf 10be
00000350: cee7 b63e d6a1 3a3e ef74 d9be f90c 50be
00000360: 9393 eabd ac29 76be 50e4 adbe a5d5 e1be
00000370: a46a 22be 8ef1 bdbd 8bfa bfbe ba1b ff3d
00000380: fe1f f03e b6af ea3e a4e3 8bbe daaf 4c3e
00000390: 4746 863e a9fe 91be 89f7 c1be eb15 e4be
000003a0: b383 c6be cd50 d43e 8e0f f23d 83ff ce3d
000003b0: ec5c 46be a065 283e ec04 9ebe cea6 523e
000003c0: 8f28 e8be 2f4e 15be 52a9 1c3e c7fa 62be
000003d0: 0992 153e 3ef8 b23e cccc 5d3e f56b 2cbd
000003e0: 8acf 93be 3803 8bbe 529d 993e 00e9 c43d
000003f0: ef34 a23e 24b4 12be 5364 09be 948c 353e

discrete_net.0.bias f4 [64]
0.08015175 0.04367924 -0.3699771 -0.21307302 0.29193103 -0.00023986364 -0.45598692 -0.2762003
0.20743324 0.06633916 -0.45339137 -0.07674403 -0.016899986 -0.3691178 0.23110728 -0.36503986
-0.18736933 -0.024667628 -0.3231384 -0.16200612 -0.33265898 0.35034406 0.3299939 0.08699616
0.42723626 -0.4289726 0.10746243 -0.20464188 0.014695967 0.13470805 -0.34674993 -0.35014144
-0.20892875 -0.40718377 0.37494308 -0.004862995 0.19994262 -0.27061427 0.08357124 0.13381994
0.45847422 -0.31232813 0.22571519 0.40300316 -0.41256142 0.4229795 0.21956427 0.08029468
-0.21148679 0.37844476 0.21542001 -0.1043228 0.35780436 0.023869552 1.1458684e-09 0.13572735
0.21497777 -0.38303736 -0.10485993 -0.43119588 0.02177674 0.06751476 0.1438813 0.08189356
00000000: 9a26 a43d 01e9 323d a36d bdbe d02f 5abe
00000010: fc77 953e e883 7bb9 1e77 e9be 206a 8dbe
00000020: 6169 543e d3dc 873d ea22 e8be f92b 9dbd
00000030: d771 8abc 02fd bcbe 63a7 6c3e 81e6 babe
00000040: bfdd 3fbe c413 cabc 6572 a5be efe4 25be
00000050: 4752 aabe 4c60 b33e f6f4 a83e 0b2b b23d
00000060: b6be da3e 4ca2 dbbe 4315 dc3d a48d 51be
00000070: 5ac7 703c e8f0 093e 3589 b1be bd45 b3be
00000080: 6bf1 55be 647a d0be 8af8 bf3e c259 9fbb
00000090: c2bd 4c3e f48d 8abe 6627 ab3d 1808 093e
000000a0: 22bd ea3e 79e9 9fbe e221 673e 6e56 ce3e
000000b0: 403b d3be c590 d83e 75d5 603e 8a71 a43d
000000c0: fe8f 58be 83c3 c13e 1097 5c3e 31a7 d5bd
000000d0: 2232 b73e 148a c33c a97c 9d30 1cfc 0a3e
000000e0: 2223 5c3e 791d c4be cec0 d6bd b5c5 dcbe
000000f0: 2265 b23c 2e45 8a3d 9f55 133e d0b7 a73d

discrete_net.2.weight f4 [64, 64]
0.04017472 -0.04113723 -0.031082692 0.050407715 0.03466644 -0.08124077 -0.039920807 0.072774924
0.06429431 -0.06866093 0.06041346 0.08839735 0.0014715893 0.08746116 -0.05535738 0.020481948
-0.054974597 -0.04544775 -0.09454182 -0.057910364 -0.0878263 -0.06986617 0.087304056 0.070867784
-0.021862447 -0.062574275 -0.082583286 -0.033434525 0.0016379033 0.015527353 -0.0021220858 0.0023122255
4.135246e-27 0.01726849 -0.08648352 -0.085090235 0.0867061 0.073944554 -7.974662e-18 -0.004768884
-0.076152295 -8.193314e-21 -0.07092096 -0.0136009725 -0.018447293 0.011091461 -0.050191123 0.081929125
-0.007819212 -0.039659142 0.0075612674 -0.018790066 -0.025850749 0.048073683 -0.048216347 0.02624441
0.054688044 0.0337022 -0.027908346 -0.047994446 0.028856805 0.083496995 -0.09248204 0.073042184
0.04314461 -0.08097789 -0.057256725 -0.029615134 0.0026482637 -4.4506623e-07 -0.051586334 0.02950286
-0.063085645 -0.038748868 -0.04249067 0.07918612 2.4203666e-06 -0.02823301 0.0034646087 0.0022629243
-0.036232084 0.05326122 0.026586045 -0.09388238 -0.052582145 -0.0051277434 -0.06555922 0.009200904
-0.027821457 -0.04697203 0.012846343 -0.00980827 -0.047647383 -0.0010452557 -0.00014486507 0.08941179
-0.08322597 -0.028937658 -0.005063668 -1.398353e-27 -2.484138e-05 0.081038654 -0.03779845 -0.074015014
0.061748475 -0.060376875 -0.07185178 -0.07320158 0.009106041 -0.05020777 -0.080288 -0.00027763395
0.0778523 -0.070715174 -0.0054103727 0.008174572 -0.08198053 2.7356453e-18 -0.015593222 0.008826027
-0.08251198 0.0012548993 -0.036815494 -0.022769481 -6.264831e-36 0.019708997 -0.028917907 -0.054753788
-5.622358e-09 0.06714668 -0.08573397 0.057218608 -0.03626881 -0.014663461 0.008853141 0.09505407
-0.03666957 0.051236477 -0.07382852 -0.06247984 -0.014496374 -0.008528031 -0.07580741 -0.016607894
-0.048620727 -0.09184403 -2.1029652e-20 -2.0327839e-07 -0.01894041 -0.06363345 -1.3960281e-06 0.06603986
0.040055778 -1.0741161e-27 -0.035378475 -0.04702609 -0.0042265533 -2.3469674e-25 0.000439285 -0.029075045
-0.0072115045 0.032304447 -0.067064635 -0.014928 0.025092833 -0.0032161614 -0.003134267 -0.078391775
-0.06333337 -0.024152044 1.6649079e-05 -0.09071336 -0.0005098787 -0.047516216 -0.06855035 -0.09261924
-1.0519575e-13 -0.035723154 0.04779288 -0.09318609 0.0551966 0.024988346 -0.058064155 -0.005276524
0.03831043 -0.07614009 -0.03497712 -1.0889158e-18 -0.06661994 0.08491063 0.07312744 0.0021443896
-0.029907594 -0.036505546 0.039006047 0.049682744 -0.026854068 0.02970035 0.042582307 0.005802657
0.013815363 -0.09454653 -0.052024733 -0.0020327687 0.006593383 -0.021506593 0.024158388 0.04147662
0.025395824 0.030866176 -0.019003242 0.08189521 -0.02145345 -0.006899835 0.035259318 0.050592296
-0.038255885 -9.392515e-07 -0.055183213 0.04571726 -0.071105644 0.038198613 -8.265926e-12 0.0123136155
-0.02226822 -0.08258051 0.072929755 0.07646281 -0.013789482 0.06295301 -0.07204731 -0.09452356
-0.014478591 -0.06720695 -0.012520109 -0.004598456 -0.031007258 -0.012214846 0.053529847 0.037865736
-0.00022846929 -0.0069342107 0.08568819 -0.091327846 0.018110624 -0.030253146 -0.037202567 -0.08286094
0.028171925 -0.0036283394 -0.007125971 0.0019013805 0.00012204941 0.071459875 0.010149285 0.021421479
00000000: 3f8e 243d 837f 28bd 21a1 febc 5278 4e3d
00000010: 66fe 0d3d 9061 a6bd 0084 23bd 050b 953d
00000020: bcac 833d 1a9e 8cbd 1b74 773d ab09 b53d
00000030: 58e2 c03a d61e b33d 6cbe 62bd c2c9 a73c
00000040: 0b2d 61bd 6b27 3abd 249f c1bd 6b33 6dbd
00000050: 46de b3bd ff15 8fbd 78cc b23d 2123 913d
00000060: e018 b3bc f126 80bd 6d21 a9bd a4f2 08bd
00000070: eaae d63a 7066 7e3c b112 0bbb b588 173b
00000080: 60d0 a313 a676 8d3c 461e b1bd ca43 aebd
00000090: f892 b13d 3e70 973d 471b 13a3 4c44 9cbb
000000a0: bcf5 9bbd 6fc4 1a9e 023f 91bd 9dd6 5ebc
000000b0: c71e 97bc f6b8 353c 3595 4dbd 75ca a73d
000000c0: 271c 00bc a071 22bd 82c4 f73b a0ed 99bc
000000d0: f3c4 d3bc e9e8 443d 817e 45bd 84fe d63c
000000e0: 9200 603d 510b 0a3d 0ba0 e4bc d395 44bd
000000f0: 1b65 ec3c 7900 ab3d 3967 bdbd 2497 953d
00000100: 67b8 303d bcd7 a5bd 0786 6abd 709b f2bc
00000110: 7e8e 2d3b 70f1 eeb4 314c 53bd fbaf f13c
00000120: 0c33 81bd 22b7 1ebd b20a 2ebd 552c a23d
00000130: 956d 2236 ea48 e7bc 7d0e 633b 924d 143b
00000140: 1868 14bd 7028 5a3d faca d93c 6845 c0bd
00000150: 6060 57bd a106 a8bb ea43 86bd 63bf 163c
00000160: d3e9 e3bc be65 40bd 7879 523c deb2 20bc
00000170: e729 43bd f600 89ba ece6 17b9 871d b73d
00000180: 6172 aabd ab0e edbc 20ed a5bb f093 dd92
00000190: 7562 d0b7 98f7 a53d 8cd2 1abd 2f95 97bd
000001a0: f8eb 7c3d be4d 77bd 0727 93bd b6ea 95bd
000001b0: 8131 153c aaa6 4dbd 096e a4bd 668f 91b9
000001c0: 0771 9f3d 1ed3 90bd 7f49 b1bb a4ee 053c
000001d0: 68e5 a7bd e1da 4922 b77a 7fbc 0a9b 103c
000001e0: 0afc a8bd 6f7b a43a d8cb 16bd 1087 babc
000001f0: fc3c 0585 c374 a13c 3fe5 ecbc 8245 60bd
00000200: c92e c1b1 3384 893d 4b95 afbd 0f5e 6a3d
00000210: 9b8e 14bd 033f 70bc c40c 113c b5ab c23d
00000220: d532 16bd 57dd 513d 6833 97bd dcea 7fbd
00000230: 3382 6dbc 28b9 0bbc ea40 9bbd 470d 88bc
00000240: 8726 47bd b918 bcbd 949e c69e bd44 5ab4
00000250: eb28 9bbc 4152 82bd 295f bbb5 e83f 873d
00000260: 8711 243d 5333 aa92 05e9 10bd 6e9e 40bd
00000270: e67e 8abb 2f45 9196 d64f e639 ca2e eebc
00000280: 7c4e ecbb ab51 043d 2f59 89bd 9294 74bc
00000290: 7c8f cd3c 3cc6 52bb 4668 4dbb de8b a0bd
000002a0: edb4 81bd 82da c5bc a0a9 8b37 edc7 b9bd
000002b0: 61a9 05ba 5da0 42bd 2064 8cbd 28af bdbd
000002c0: 39e1 eca9 7152 12bd 78c2 433d 59d8 bebd
000002d0: d415 623d 5cb4 cc3c aed4 6dbd b1e6 acbb
000002e0: 66eb 1c3d 56ef 9bbd 2b44 0fbd 13b2 a0a1
000002f0: 0970 88bd a0e5 ad3d d7c3 953d e388 0c3b
00000300: c500 f5bc d786 15bd cec4 1f3d 2280 4b3d
00000310: 10fd dbbc 264e f33c c96a 2e3d 3724 be3b
00000320: d559 623c 9ca1 c1bd e317 55bd 3338 05bb
00000330: 4e0d d83b 982e b0bc d0e7 c53c 63e3 293d
00000340: e70a d03c 10db fc3c b0ac 9bbc adb8 a73d
00000350: 25bf afbc 0318 e2bb 136c 103d de39 4f3d
00000360: 34b2 1cbd df20 7cb5 cb07 62bd 0642 3b3d
00000370: d69f 91bd 2676 1c3d 6c6a 11ad 0cbf 493c
00000380: d86b b6bc f81f a9bd 325c 953d 8998 9c3d
00000390: 48ed 61bc 82ed 803d 8a8d 93bd 9195 c1bd
000003a0: 9d37 6dbc cca3 89bd 2521 4dbc a5ae 96bb
000003b0: ef02 febc c720 48bc 1d42 5b3d 1a19 1b3d
000003c0: 4291 6fb9 6038 e3bb 4a7d af3d 180a bbbd
000003d0: bb5c 943c 72d5 f7bc b861 18bd ffb2 a9bd
000003e0: cfc8 e63c 6fc9 6dbb fa80 e9bb be37 f93a
000003f0: c7f4 ff38 8e59 923d 3049 263c 197c af3c

discrete_net.2.bias f4 [64]
-0.008863662 -0.052546266 -0.036080353 -0.005666382 -0.030685145 0.027221834 -0.03808015 0.019471612
0.0052927393 -0.09006886 0.0151804 -0.011118027 0.022379922 -6.9947178e-06 0.0028084097 -0.029196851
0.08196543 0.00790819 0.028809689 -0.045805667 0.046939958 0.07143632 -0.0137395905 -0.04213387
-0.0026265741 0.09541553 -0.045328274 -0.01578435 0.0052053146 0.048549432 0.04452371 -0.059429504
-0.00091034157 0.09043867 -0.087837666 0.0044948133 0.041897733 0.079950556 -0.07390392 0.017794747
0.010809234 -0.08061583 -0.015948232 0.066051036 -0.09086654 -0.06369715 0.012314986 0.06448111
-0.0062049525 -0.043459434 0.07824616 0.08567522 -0.029988278 -0.07914378 -0.0053828573 -0.04690495
-0.06756886 -0.008923865 -0.050908934 -0.06387176 -0.046209864 0.02408618 -0.005409912 0.06607714
00000000: e538 11bc c13a 57bd fec8 13bd 0fad b9bb
00000010: 6a5f fbbc 5300 df3c eef9 1bbd ee82 9f3c
00000020: b76e ad3b 0676 b8bd 36b7 783c 6328 36bc
00000030: 1956 b73c 2bb4 eab6 4c0d 383b 3c2e efbc
00000040: 7edd a73d 5a91 013c 4c02 ec3c b99e 3bbd
00000050: 1d44 403d 354d 923d 051c 61bc 9194 2cbd
00000060: 9a22 2cbb 3869 c33d 24aa 39bd 2e4e 81bc
00000070: 5891 aa3b c5db 463d 7e5e 363d 5a6c 73bd
00000080: fda3 6eba e937 b93d 3ce4 b3bd 3a49 933b
00000090: f59c 2b3d 1ebd a33d f05a 97bd 4ac6 913c
000000a0: 3719 313c ea19 a5bd dea5 82bc c445 873d
000000b0: 3d18 babd a773 82bd ccc4 493c ac0e 843d
000000c0: ea52 cbbb 8502 32bd 863f a03d 7d76 af3d
000000d0: faa9 f5bc 2216 a2bd ae62 b0bb 681f 40bd
000000e0: 8b61 8abd 6735 12bc e385 50bd 33cf 82bd
000000f0: 8e46 3dbd 6150 c53c a245 b1bb 7453 873d

discrete_net.4.weight f4 [64, 64]
-0.0067411363 -0.052939042 -0.07028046 0.030058214 -2.0947e-41 0.06826565 0.08284137 -0.07173256
0.042570513 0.08784733 -0.06930557 0.074017555 -0.07197739 0.0009205171 -0.003670399 0.0933613
0.013605959 -0.0057035256 0.010239427 -0.00025326275 -0.022790318 0.017787373 -0.03046661 -0.07800075
0.005477283 -0.0103778755 -0.0025947962 -0.051802464 0.035638366 -0.044988357 0.07270375 0.01992155
0.048316866 -0.00450428 -0.010736276 0.08362879 0.0040449537 -0.00060261483 0.007024009 0.09004134
-0.020695776 -0.019943096 -0.07195774 -9.9817035e-09 0.055740666 -0.05191719 0.008034956 0.07881844
0.048479617 0.0893192 0.07415789 -0.054832004 -0.039095018 -0.013700151 -0.05661112 -0.050420646
-0.079143785 -0.03554961 0.034533214 0.065598264 0.049170144 -0.035681143 0.09507244 0.021714456
0.032578643 -3.724754e-05 -0.051638186 0.03473364 0.0036909487 -0.023898875 0.03199868 -0.072493866
-0.015593445 -0.05727944 -0.00855917 -0.026117736 -0.048062265 -4.010507e-08 0.054269698 0.020675065
-0.08684829 -0.0063377996 -0.01608362 -0.08967113 0.081321314 -0.09152958 0.022908103 0.01354674
0.04158278 -0.055201907 -0.059275296 0.028202664 0.019152667 -0.049525417 8.161513e-18 0.06747244
0.065406844 -0.04425051 -0.006320661 -0.08438502 0.048506938 -0.014638626 0.090178445 -0.051936995
0.050782233 0.024104815 0.010761752 0.0042591095 -0.015692947 0.04173403 -0.07478249 0.032388706
0.025018156 0.007844959 0.016354568 -0.02013879 0.04151729 1.9998528e-05 0.011714135 0.09364011
0.011993395 0.027864004 0.07502188 0.072924785 0.0038489741 -0.017273247 0.00083535915 -0.023085007
0.028370436 0.08772715 -0.07303704 -0.015152715 0.088249534 -0.013962183 0.036232606 -0.07765348
0.024140215 0.03703341 -0.054320432 -0.0713005 0.012760178 -7.4120012e-09 0.0062345993 -0.08507059
-0.055009086 0.020656945 0.019972792 0.0935633 -0.027034888 0.021029282 -0.013936047 -0.011022491
-0.0107556805 0.00345284 -0.008439644 -0.076898456 -0.05502493 -0.002915835 -3.0726493e-20 0.04049606
-0.0075562946 0.007341623 0.08779433 0.0743007 0.0041022724 0.010250267 -0.07085721 0.051478337
0.01684033 8.987083e-21 0.021045087 -0.016067516 0.05340445 -0.081829764 0.012481911 -0.04688564
-1.7050068e-09 0.018954253 -0.044603225 0.046120714 -2.5595442e-20 -2.89e-43 0.054321434 7.985509e-05
0.00623839 -0.04991276 -0.06765106 0.07300068 0.011268644 0.07297768 -5.1912163e-33 0.012649199
0.052599702 -0.001307432 -0.04099459 -0.043626647 -0.045364827 -0.08070656 -0.037389446 -0.009945073
0.0033845918 -0.08052938 -0.019358724 -0.071046285 0.009574415 0.094862066 -0.036659427 -4.7226965e-29
-0.026516218 0.07491386 -0.016882356 -0.06133871 0.00822565 -0.05218861 0.048416108 -0.05343057
0.0783602 0.047518536 -0.0014928752 0.030239185 -0.009333039 -0.0028329697 0.0002527353 0.06286314
-0.018715927 -0.017652227 -0.011511799 -0.035959635 -0.021557383 -0.0038377035 -0.000164603 0.043775007
0.07121916 0.02140606 0.0047311243 -0.08780407 -0.08713476 0.020003924 0.036468532 0.014126123
-0.08541686 0.053136807 0.0077352724 -0.0110131055 -0.0032750126 -0.029814603 0.056445528 -0.05268233
0.0053606876 -0.057402216 -0.057451196 -6.1597993e-10 -0.043920536 -0.019046975 -0.022812523 0.0021782015
00000000: c0e4 dcbb 9cd6 58bd 34ef 8fbd a53c f63c
00000010: 643a 0080 dcce 8b3d bca8 a93d 85e8 92bd
00000020: 6b5e 2e3d 4de9 b33d 14f0 8dbd 8496 973d
00000030: e268 93bd db4e 713a 148b 70bb 3634 bf3d
00000040: 87eb 5e3c a4e4 babb 45c3 273c 5ac8 84b9
00000050: c3b2 babc d3b6 913c 1d95 f9bc dbbe 9fbd
00000060: c87a b33b f707 2abc 750d 2abb d22e 54bd
00000070: 89f9 113d b645 38bd b4e5 943d 8532 a33c
00000080: e8e7 453d a498 93bb 35e7 2fbc 9245 ab3d
00000090: 888b 843b ccf8 1dba a829 e63b 9867 b83d
000000a0: 308a a9bc b45f a3bc 945e 93bd ff7b 2bb2
000000b0: 5350 643d 1fa7 54bd 0ca5 033c 906b a13d
000000c0: 9092 463d fcec b63d 18e0 973d 8697 60bd
000000d0: 1922 20bd 9976 60bc 10e1 67bd e185 4ebd
000000e0: 2316 a2bd 789c 11bd b372 0d3d 6258 863d
000000f0: a266 493d 6426 12bd 57b5 c23d 84e2 b13c
00000100: 2f71 053d 3e3a 1cb8 9082 53bd dc44 0e3d
00000110: d8e3 713b 93c7 c3bc 0c11 033d aa77 94bd
00000120: a67b 7fbc d99d 6abd c33b 0cbc ddf4 d5bc
00000130: f0dc 44bd fe3f 2cb3 e749 5e3d c15e a93c
00000140: 84dd b1bd 51ad cfbb ccc1 83bc 7fa5 b7bd
00000150: ca8b a63d dc73 bbbd c6a9 bb3c 25f3 5d3c
00000160: b552 2a3d 651b 62bd a7ca 72bd 4609 e73c
00000170: 0ee6 9c3c 2adb 4abd a88d 1623 fe2e 8a3d
00000180: 06f4 853d 0640 35bd 8c1d cfbb 0ed2 acbd
00000190: 36af 463d d9d6 6fbc 7aaf b83d e3bb 54bd
000001a0: 0801 503d 7677 c53c 0f52 303c 0090 8b3b
000001b0: 7f8e 80bc 4df1 2a3d 9027 99bd 05aa 043d
000001c0: e0f2 cc3c 2588 003c 04fa 853c 1bfa a4bc
000001d0: 090e 2a3d 83c2 a737 a5ec 3f3c 63c6 bf3d
000001e0: f27f 443c 0d43 e43c 12a5 993d 9759 953d
000001f0: 123f 7c3b a080 8dbc 01fc 5a3a c51c bdbc
00000200: 1e69 e83c 4baa b33d 7294 95bd 1843 78bc
00000210: 2cbc b43d a4c1 64bc a468 143d ca08 9fbd
00000220: b3c1 c53c 58b0 173d 1a7f 5ebd ff05 92bd
00000230: 1110 513c a7ac feb1 9c4b cc3b 7d39 aebd
00000240: 3551 61bd c138 a93c fb9d a33c 1e9e bf3d
00000250: 4578 ddbc 9a45 ac3c 0554 64bc ae97 34bc
00000260: 9838 30bc 0b49 623b 6f46 0abc f07c 9dbd
00000270: d261 61bd 9817 3fbb 0d1a 119f 32df 253d
00000280: cb9a f7bb ff91 f03b 84cd b33d f72a 983d
00000290: 5b6c 863b bcf0 273c 961d 91bd f3da 523d
000002a0: bbf4 893c dec2 291e bf66 ac3c 06a0 83bc
000002b0: a0be 5a3d 5d96 a7bd ee80 4c3c 280b 40bd
000002c0: 9855 eab0 f345 9b3c dfb1 36bd 13e9 3c3d
000002d0: fbbd f19e ce00 0080 2780 5e3d e077 a738
000002e0: 696b cc3b 5271 4cbd a48c 8abd 6181 953d
000002f0: 1ea0 383c 5275 953d 7ba2 d789 963e 4f3c
00000300: c972 573d 235e abba f1e9 27bd dbb1 32bd
00000310: 78d0 39bd 7b49 a5bd ad25 19bd a9f0 22bc
00000320: 07d0 5d3b 96ec a4bd 3096 9ebc b780 91bd
00000330: 02de 1c3c 0b47 c23d 3228 16bd 1b78 6f90
00000340: 8a38 d9bc 706c 993d de4c 8abc 4d3e 7bbd
00000350: e0c4 063c b9c3 55bd f84f 463d 03da 5abd
00000360: 507b a03d cca2 423d 94ac c3ba 2bb8 f73c
00000370: 9ae9 18bc 58a9 39bb 8f81 8439 64be 803d
00000380: 2552 99bc 679b 90bc fc9b 3cbc 694a 13bd
00000390: 1c99 b0bc fb81 7bbb 4899 2cb9 6c4d 333d
000003a0: 5adb 913d c35b af3c 8c07 9b3b 9fd2 b3bd
000003b0: b673 b2bd 45df a33c 0760 153d 4171 673c
000003c0: 09ef aebd fba5 593d 2b78 fd3b 5070 34bc
000003d0: 98a1 56bb c13d f4bc 6d33 673d 6dc9 57bd
000003e0: b5a8 af3b 961e 6bbd f251 6bbd bc51 29b0
000003f0: 05e6 33bd 6708 9cbc 54e1 babc 28c0 0e3b

discrete_net.4.bias f4 [64]
-0.038292803 0.01548722 0.042121872 0.0059412248 0.014411329 -0.03259744 0.0057837875 0.061361894
-0.050997417 -0.017528735 -0.025553228 0.02428164 -0.072668225 -0.025130812 0.05815514 0.04574506
-0.011573437 0.023111382 -0.07181065 0.07379241 0.019417217 0.043649483 -0.020614237 0.016191492
-0.0730944 0.018784318 0.0043893224 0.08981866 -0.007386132 0.048949767 0.02664329 0.0010651693
-0.0035845719 0.08219418 0.09583011 -0.032023426 -0.07119059 0.03375646 0.07717562 0.06446402
0.031261873 -0.0030746812 -0.006590221 -0.035123397 -0.09313321 0.050789796 0.09432511 0.03396304
0.017276198 -0.047385074 -0.04577252 -0.02937543 -0.09124067 0.025938882 0.019290451 0.009074028
0.039316602 -0.016161436 0.004388804 0.007212738 -0.05792585 -0.078292 -0.036224976 -0.06367404
00000000: ead8 1cbd 1cbe 7d3c fc87 2c3d 9bae c23b
00000010: 7f1d 6c3c e584 05bd ed85 bd3b 9c56 7b3d
00000020: abe2 50bd 6c98 8fbc 0155 d1bc 4aea c63c
00000030: 14d3 94bd 22df cdbc 1634 6e3d 2c5f 3b3d
00000040: 839e 3dbc 1554 bd3c 7611 93bd 7a20 973d
00000050: db10 9f3c cdc9 323d 30df a8bc 05a4 843c
00000060: 84b2 95bd 92e1 993c 4ed4 8f3b d8f2 b73d
00000070: 5e07 f2bb 8d7f 483d 0743 da3c 279d 8b3a
00000080: 23eb 6abb 6c55 a83d 9442 c43d ff2a 03bd
00000090: 5fcc 91bd 3744 0a3d 400e 9e3d b605 843d
000000a0: 730c 003d 9780 49bb c8f2 d7bb 8ddd 0fbd
000000b0: a0bc bebd f608 503d 862d c13d d41c 0b3d
000000c0: d086 8d3c da16 42bd f77b 3bbd bea4 f0bc
000000d0: 63dc babd c77d d43c 0207 9e3c 3bab 143c
000000e0: 720a 213d fd64 84bc f5cf 8f3b d558 ec3b
000000f0: a843 6dbd 8e57 a0bd a460 14bd 8967 82bd

continuous_net.0.weight f4 [64, 2]
0.53628093 -0.28252786 0.14409408 -0.26317 0.06563097 0.2979711 -0.23881769 -0.37980843
-0.55701244 -0.6367406 -0.03459766 -0.5823316 -0.39479968 0.5976505 0.45733315 0.13970838
0.18057963 -0.65429705 0.35447764 0.52439487 -0.3334783 -0.29602256 -0.27100664 0.22809969
0.5161333 0.34567446 -0.46777725 -0.083735876 -0.4073989 -0.032690734 -0.3182244 0.07696107
0.37547863 -0.19607575 -0.57060105 -0.38111907 -0.2534318 0.33302438 -0.5698712 0.22346245
0.081459716 0.0033243864 -0.51285875 0.46377495 -0.12090649 0.3187872 0.5583942 -0.20480832
0.32927603 0.08264849 0.26269722 -0.004491115 -0.50560665 -0.34523988 0.46959886 -0.022296173
-0.47624493 0.06799195 0.29938874 0.48994604 -0.4404282 0.19355819 0.5644887 0.49050868
0.6575258 0.60317826 -0.5168237 0.29400057 0.30679986 0.21155001 0.2650042 0.58612305
-0.10735299 0.4765993 0.13575262 -0.60723287 0.013433349 0.13351835 -0.6434958 0.24479812
0.52218384 0.27651495 0.18799831 0.40980053 -0.501458 -0.35661262 -0.074502945 -0.66547716
-0.010193942 0.300835 0.106265694 0.632718 0.08396167 0.3363212 -0.22488 0.16578107
0.23809159 0.58903104 0.31236944 -0.5389729 0.2060527 0.6170924 0.39054805 -0.18421355
-0.6736645 0.17574476 -0.45396194 -0.0064994935 -0.5007618 -0.39091572 0.4321586 -0.43317953
0.3976134 -0.11993888 -0.3745467 -0.30482247 -0.13465135 -0.47880954 -0.3414647 0.15785171
-0.41932717 0.55613697 -0.27078217 0.075430915 -0.4146511 -0.5345348 -0.12944043 0.30064008
00000000: b549 093f 7ea7 90be 668d 133e 38be 86be
00000010: 8869 863d ab8f 983e a08c 74be 4076 c2be
00000020: 5e98 0ebf 6f01 23bf 47b6 0dbd af13 15bf
00000030: 2f23 cabe a0ff 183f 9227 ea3e b70f 0f3e
00000040: dee9 383e 0380 27bf 187e b53e be3e 063f
00000050: abbd aabe 4590 97be 62c1 8abe f792 693e
00000060: 5021 043f 3efc b03e 8080 efbe b77d abbd
00000070: 9796 d0be b8e6 05bd 4fee a2be c49d 9d3d
00000080: bc3e c03e 15c8 48be e912 12bf 0a22 c3be
00000090: d0c1 81be 2c82 aa3e 14e3 11bf 57d3 643e
000000a0: 5ad4 a63d f3dd 593b b64a 03bf e973 ed3e
000000b0: d29d f7bd 1338 a33e ecf2 0e3f 46b9 51be
000000c0: de96 a83e 9d43 a93d 4080 863e 342a 93bb
000000d0: 706f 01bf 48c3 b0be 436f f03e 77a6 b6bc
000000e0: 60d6 f3be 5d3f 8b3d 7b49 993e 35da fa3e
000000f0: ce7f e1be 1e34 463e 5582 103f f423 fb3e
00000100: 9c53 283f e469 1a3f 8f4e 04bf 3e87 963e
00000110: df14 9d3e 91a0 583e a1ae 873e 290c 163f
00000120: e2db dbbd d304 f43e bc02 0b3e 9d73 1bbf
00000130: 8d17 5c3c 09b9 083e 24bc 24bf 5cac 7a3e
00000140: d7ad 053f 5e93 8d3e a182 403e 60d1 d13e
00000150: 8d5f 00bf ee95 b6be 0095 98bd b65c 2abf
00000160: 7e04 27bc 0c07 9a3e d4a1 d93d cff9 213f
00000170: 19f4 ab3d 4b32 ac3e f146 66be 83c2 293e
00000180: 48ce 733e bdca 163f e3ee 9f3e 21fa 09bf
00000190: 7bff 523e c4f9 1d3f eaf5 c73e 7aa2 3cbe
000001a0: 4775 2cbf 6ff6 333e b36d e8be b4f9 d4bb
000001b0: ed31 00bf 1b26 c8be e443 dd3e b5c9 ddbe
000001c0: fc93 cb3e 84a2 f5bd 96c4 bfbe b111 9cbe
000001d0: 0be2 09be 8626 f5be 76d4 aebe e1a3 213e
000001e0: 0db2 d6be fe5e 0e3f f6a3 8abe 867b 9a3d
000001f0: 264d d4be 46d7 08bf 088c 04be 7fed 993e

continuous_net.0.bias f4 [64]
-0.30163375 -0.24833679 -0.24475777 -0.43151733 0.45417252 -0.27726495 -0.5878765 0.20740303
0.12297574 0.11200038 -0.58588016 -0.4232237 0.17933665 -0.61383116 -0.52097356 0.4144097
-0.6316497 -0.6169463 0.4735213 -0.4762699 -0.29380432 0.39682874 -0.13535774 0.47865942
0.13611431 -0.4069836 -0.50026464 0.47834364 0.537221 0.3266214 -0.5129629 0.3454742
-0.15515627 -0.62319607 -0.4264238 -0.30404475 0.1843818 -0.5305377 -0.32884243 0.4796102
-0.07299508 -0.26625705 0.42996472 -0.093557954 0.23131801 0.45340943 -0.3442716 0.5014548
0.18350725 -0.5974587 0.113674976 -0.02682628 0.44171792 -0.6214394 -0.51429045 0.0775148
0.049556408 0.42141256 0.49065813 0.2926527 0.059509594 0.4158999 -0.47518048 -0.455811
00000000: bd6f 9abe 004c 7ebe c8a1 7abe d7ef dcbe
00000010: 4d89 e83e acf5 8dbe 137f 16bf 7661 543e
00000020: b4da fb3d 7560 e53d 3efc 15bf c7b0 d8be
00000030: 07a4 373e 0a24 1dbf 865e 05bf 822d d43e
00000040: cbb3 21bf 31f0 1dbf 6271 f23e a6d9 f3be
00000050: 856d 96be 232d cb3e 389b 0abe d912 f53e
00000060: 8d61 0b3e 2860 d0be 5811 00bf 75e9 f43e
00000070: 5187 093f ec3a a73e 8951 03bf ffe1 b03e
00000080: 49e1 1ebe c789 1fbf 3854 dabe c1ab 9bbe
00000090: 95ce 3c3e 52d1 07bf 095e a8be 788f f53e
000000a0: 727e 95bd d852 88be 5624 dc3e 509b bfbd
000000b0: a1de 6c3e 4825 e83e 5e44 b0be 575f 003f
000000c0: 53e9 3b3e 0ef3 18bf 6dce e83d c9c2 dbbc
000000d0: da28 e23e a716 1fbf 8aa8 03bf 14c0 9e3d
000000e0: a9fb 4a3d 63c3 d73e 8b37 fb3e 93d6 953e
000000f0: 55c0 733d d5f0 d43e db4a f3be 0f60 e9be

continuous_net.2.weight f4 [64, 64]
-0.006262709 0.062199034 0.033801842 -0.0047748797 -0.08050218 0.05674722 -0.050820194 0.024960345
0.11254622 -0.10729471 0.0077151516 0.055752106 -0.022447746 0.07149453 0.088666014 0.0004407765
0.045963526 0.07349013 -0.1140282 -0.030632326 0.06945438 -0.09085489 0.07149909 0.044787075
-0.093751065 0.02364905 -0.0073617874 0.03505564 -0.08677116 -0.08875409 -0.054096162 -0.07628113
-0.069814116 -0.07244882 0.062102415 -0.07673211 -0.073358744 0.009944143 0.017677361 0.038991015
-0.05177155 -0.04853688 0.09453594 0.07303378 -0.08898626 -0.11209788 0.06623955 -0.01616123
0.090307705 0.0022067463 -0.13352662 0.008799805 0.029571243 0.04763791 -0.016762737 0.03539054
-0.029741595 -0.019590743 0.10219602 -0.070507765 0.03858015 -0.07174708 -0.019690018 -0.0145457145
-0.07216205 -0.04703346 0.06571468 -0.010689187 0.05673217 0.0664517 0.084148936 -0.107384294
-0.094254225 -0.012170573 0.020585336 0.009580078 0.04733766 0.015639044 -0.08882418 0.020674782
0.031311747 -0.08072278 -0.013071182 0.10560771 0.020776734 0.15131204 0.07465831 -0.08353552
0.008934042 -0.009080539 -0.08827506 0.061994594 0.09000005 0.08363863 0.0925571 -0.0096606305
0.03558697 0.026859751 0.05947731 0.017953716 0.100254685 -0.0954608 0.0008784251 0.05279456
0.049488746 -0.059638526 0.04778918 -0.11040484 0.049159504 0.12533136 -0.08818979 0.08625188
-0.05411988 -0.038358036 -0.06972917 0.060719505 -0.05610736 -0.07970707 -0.07708342 -0.054184213
-0.064696945 0.03950847 -0.08071803 0.004496614 -0.04817922 -0.052296866 0.050744127 -0.03743299
0.07915188 0.07613291 -0.0037656042 -0.019855062 0.029662076 0.07494585 0.07616398 -0.040261038
0.07488155 -0.10268053 -0.043044627 0.04817427 -0.08944131 0.0342336 0.08185488 -0.0056988206
0.015671672 0.049906783 0.08014679 0.081869 0.08470468 0.11729143 -0.062140334 0.08182955
-0.038640052 -0.044854347 -0.06830577 0.010114133 -0.051545136 -0.095864125 0.015362218 -0.08865756
-0.08537752 0.014364353 -0.027577557 -0.07725388 0.07454771 0.047912546 0.004187243 0.08301737
-0.08816103 -0.06149191 0.037794136 0.08618536 0.08720079 -0.021427387 0.011438934 -0.027416974
-0.060188748 0.008597881 0.04299944 0.043594435 -0.04471694 -0.025054293 -0.07244986 0.12010969
0.05449126 0.074268125 -0.09152808 0.055936124 0.11480451 0.0017299678 0.08711303 0.08655867
-0.09029356 0.08190542 -0.0005944857 -0.07297569 0.07906301 0.0013818085 0.072395734 0.094708525
0.059311945 -0.0818372 0.0106123295 -0.060577244 0.01885827 0.05256171 0.030034639 -0.12567684
0.018983237 0.04625943 -0.099302515 0.018275468 -0.015958395 -0.10306305 0.032042567 0.11779928
0.008090621 0.0045243828 0.03202621 -0.061804894 -0.004628679 0.057708625 -0.034696735 0.050380852
0.042698596 -0.01226483 -0.07217844 0.07842003 0.045645714 -0.044376176 0.07664283 -0.0303368
-0.061154336 0.009462566 -0.011750337 0.071295716 0.048330836 -0.10178541 -0.009000141 -0.118764855
0.084353596 0.042205483 -0.059137244 0.06230191 -0.031269733 -0.088315755 -0.064602755 0.083619244
-0.059900243 -0.023741692 0.011427844 -0.02925267 -0.1251269 0.06336917 -0.06812244 0.004620536
00000000: 6937 cdbb 6ac4 7e3d cd73 0a3d 9876 9cbb
00000010: 54de a4bd c66f 683d d628 50bd a379 cc3c
00000020: a27e e63d 54bd dbbd 62cf fc3b 525c 643d
00000030: 56e4 b7bc b96b 923d 8796 b53d 0518 e739
00000040: 4044 3c3d fe81 963d 9e87 e9bd a5f0 fabc
00000050: 193e 8e3d 2112 babd 1d6e 923d a772 373d
00000060: 8f00 c0bd a7bb c13c 263b f1bb 8196 0f3d
00000070: 14b5 b1bd b4c4 b5bd f093 5dbd 4839 9cbd
00000080: b4fa 8ebd 0c60 94bd 1a5f 7e3d b925 9dbd
00000090: 1c3d 96bd c2ec 223c 1dd0 903c 0bb5 1f3d
000000a0: 680e 54bd 9cce 46bd 0f9c c13d bc92 953d
000000b0: 6e3e b6bd 9393 e5bd 9aa8 873d 8e64 84bc
000000c0: 3ff3 b83d 0f9f 103b 34bb 08be 0f2d 103c
000000d0: 643f f23c f81f 433d 0252 89bc acf5 103d
000000e0: a5a4 f3bc c47c a0bc 264c d13d 6066 90bd
000000f0: 3806 1e3d 22f0 92bd f64c a1bc 2651 6ebc
00000100: b2c9 93bd 28a6 40bd 6b95 863d b321 2fbc
00000110: fe5f 683d d417 883d 4756 ac3d 4cec dbbd
00000120: 5c08 c1bd 1567 47bc 94a2 a83c c2f5 1c3c
00000130: 22e5 413d 741d 803c 74e9 b5bd 295e a93c
00000140: bf40 003d fc51 a5bd 8328 56bc db48 d83d
00000150: f833 aa3c 8bf1 1a3e 75e6 983d ac14 abbd
00000160: 1760 123c 8bc6 14bc 8ec9 b4bd 0bee 7d3d
00000170: f251 b83d bb4a ab3d 948e bd3d 9f47 1ebc
00000180: a5c3 113d fb08 dc3c 7b9e 733d ac13 933c
00000190: 5452 cd3d f480 c3bd 1c46 663a 1c3f 583d
000001a0: b6b4 4a3d 8747 74bd 96be 433d ef1b e2bd
000001b0: 7a5b 493d dd56 003e d99c b4bd d3a4 b03d
000001c0: cfac 5dbd 511d 1dbd 2bce 8ebd 04b5 783d
000001d0: d5d0 65bd 763d a3bd e9dd 9dbd 44f0 5dbd
000001e0: d57f 84bd a2d3 213d 7f4f a5bd 5558 933b
000001f0: 9357 45bd 3d35 56bd 13d9 4f3d 5653 19bd
00000200: 621a a23d 92eb 9b3d 5bc8 76bb 15a7 a2bc
00000210: e2fd f23c 367d 993d dcfb 9b3d c2e8 24bd
00000220: 805b 993d 2b4a d2bd 904f 30bd 6252 453d
00000230: 012d b7bd 8838 0c3d 88a3 a73d 2cbd babb
00000240: e161 803c 0e6b 4c3d 0024 a43d efaa a73d
00000250: a679 ad3d 7d36 f03d dd86 7ebd 4096 a73d
00000260: 0845 1ebd 31b9 37bd e5e3 8bbd c0b5 253c
00000270: fe20 53bd 6954 c4bd d0b1 7b3c 1892 b5bd
00000280: 69da aebd 7758 6b3c 54ea e1bc 4837 9ebd
00000290: 78ac 983d f23f 443d 2435 893b 0305 aa3d
000002a0: c58d b4bd f1de 7bbd 06ce 1a3d f381 b03d
000002b0: 5496 b23d 7d88 afbc 5e6a 3b3c 9099 e0bc
000002c0: 7a88 76bd 20de 0c3c 2e20 303d 1490 323d
000002d0: 1c29 37bd a93e cdbc 9860 94bd 12fc f53d
000002e0: 3a32 5f3d e319 983d 1373 bbbd 471d 653d
000002f0: a01e eb3d 16c0 e23a 5168 b23d ac45 b13d
00000300: d4eb b8bd 07be a73d 43d7 1bba 4774 95bd
00000310: caeb a13d cd1d b53a 3744 943d 8bf6 c13d
00000320: 15f1 723d 439a a7bd 56df 2d3c d81f 78bd
00000330: a97c 9a3c f34a 573d 340b f63c 6eb1 00be
00000340: bc82 9b3c 877a 3d3d 1e5f cbbd 6fb6 953c
00000350: 2ebb 82bc b812 d3bd 113f 033d c040 f13d
00000360: 868e 043c 4641 943b ea2d 033d 2127 7dbd
00000370: 2cac 97bb e15f 6c3d 2a1e 0ebd 275c 4e3d
00000380: b9e4 2e3d 6df2 48bc 4ad2 93bd ae9a a03d
00000390: 00f7 3a3d cbc3 35bd ebf6 9c3d e184 f8bc
000003a0: f87c 7abd e108 1b3c 7c84 40bc 7d03 923d
000003b0: 8ef6 453d de74 d0bd 5475 13bc fd3a f3bd
000003c0: 94c1 ac3d a8df 2c3d e539 72bd 4a30 7f3d
000003d0: b114 00bd e4de b4bd 734e 84bd 9140 ab3d
000003e0: f559 75bd f07d c2bc da3b 3b3c 4ca3 efbc
000003f0: 4421 00be b2c7 813d c783 8bbd de67 973b

continuous_net.2.bias f4 [64]
-0.0073037664 0.086672924 -0.0055156914 0.018683653 0.08019174 -0.03486479 -0.028684635 -0.0285578
0.06231154 0.029653976 -0.06715477 0.046408784 -0.07224719 -0.006230373 -0.006106003 0.034343816
0.00040291224 -0.054773834 -0.021177825 -0.010153202 0.04083546 0.049149815 -0.07942815 0.009624741
0.05820629 -0.065213576 -0.09440454 -0.07061508 -0.003972732 -0.013180444 -0.07666991 -0.049221665
-0.01720399 0.0031035992 -0.08687457 0.0034003942 0.028116731 0.029425126 -0.06575951 0.07871805
-0.026520878 -0.09530134 -0.022022512 -0.09381775 0.020867072 0.007387566 -0.063895546 -0.08920315
0.07760433 0.006075689 -0.066534385 -0.05419938 -0.03341624 0.04114935 0.053708203 0.017268429
-0.09552987 -0.083531275 -0.06755524 -0.037369996 0.015698455 0.017342689 -0.0047605652 -0.026561048
00000000: 6f54 efbb 9381 b13d f9bc b4bb 760e 993c
00000010: 913b a43d 62ce 0ebd 0afc eabc 0cf2 e9bc
00000020: 633a 7f3d e5ec f23c 7188 89bd 2317 3e3d
00000030: 56f6 93bd 2828 ccbb de14 c8bb 1aac 0c3d
00000040: f73d d339 875a 60bd 1e7d adbc 9e59 26bc
00000050: 1543 273d 5151 493d 3aab a2bd 17b1 1d3c
00000060: b869 6e3d b28e 85bd 2b57 c1bd a49e 90bd
00000070: b12d 82bb caf2 57bc 1d05 9dbd a89c 49bd
00000080: 62ef 8cbc c165 4b3b 4beb b1bd 26d9 5e3b
00000090: 0f55 e63c f60c f13c ecac 86bd ee36 a13d
000000a0: 5042 d9bc 592d c3bd 8e68 b4bc 8523 c0bd
000000b0: 6cf1 aa3c 6513 f23b abdb 82bd 24b0 b6bd
000000c0: 05ef 9e3d 9316 c73b 2e43 88bd 2b00 5ebd
000000d0: 78df 08bd 398c 283d 22fd 5b3d 8576 8d3c
000000e0: 2aa5 c3bd 7212 abbd 675a 8abd 4811 19bd
000000f0: 0c9a 803c 4112 8e3c 84fe 9bbb 8e96 d9bc

fusion_net.0.weight f4 [32, 128]
-0.019285405 -0.04447432 0.020641545 0.020370973 0.04734105 0.012261072 0.036570538 0.025724713
-0.011680209 0.002756223 0.038417462 -0.053590868 -0.020286977 -0.04084266 0.05984193 -0.035102963
-0.04219847 0.026310734 -0.035917122 0.029227015 -0.008183512 0.026182206 -0.00936797 0.07270231
-0.06300112 0.05327834 0.015841985 -0.01759099 0.017140409 -9.7969016e-05 0.0032720878 0.0025637557
-0.07679136 -0.05249506 -0.02424435 -0.01757315 -0.0028164773 0.040776495 0.055789966 -0.02181057
-0.012938218 0.02120678 -0.061997365 -0.048771508 0.0042706532 0.025955455 0.06512978 0.059107944
0.035576828 0.0036060596 -0.04853656 0.045938343 0.043371998 -0.024802981 0.01134159 -0.02935981
-0.050861087 -0.027517289 -0.014022891 0.059369806 0.0068382053 -0.053186893 0.036959793 -0.060507797
-0.013482689 -0.04265696 -0.040294077 0.005663805 0.018796848 0.015589757 0.06244403 0.04425332
-0.045864902 -0.012313588 -0.041198675 0.025116501 -0.008469 0.04485685 0.008101794 -0.019787675
-0.04376588 0.009023805 -0.007812828 -0.02967098 0.022959117 -0.04729508 -0.030769922 0.027216634
-0.03364371 0.02527763 0.007910301 -0.031477697 -0.01613798 -0.024652546 0.029779065 0.029070813
-0.045214266 -0.026013007 0.030867094 -0.040330525 -0.033322852 0.03778062 -0.007787041 0.07081548
-0.06307994 0.0071567497 -0.02742492 0.0054077604 -0.0008979718 0.03359382 -0.03147039 0.07400892
0.0050541186 0.037857845 0.009048625 -0.07092204 -0.06794426 -0.04845038 0.022113945 -0.049996708
-0.029686185 -0.030624544 -0.03430509 0.033019725 0.028496353 -0.06183071 -0.027423052 -0.04107061
-0.0005927371 0.0027276329 0.025818912 -0.031543255 -0.0072947643 -0.021910898 0.029231837 -0.0405043
0.015915174 0.0124064265 0.026023783 0.06295247 0.04920016 0.024932537 0.027722748 0.024157336
0.032804046 0.038890418 -0.04911743 -0.041575294 -0.0569596 -0.05543427 -0.060262565 -0.04480642
-0.05832597 0.054411776 0.007123836 -0.055968415 0.041439336 -0.035843063 0.03316331 -0.0159048
0.039332006 0.043680813 -0.04605478 -0.016308807 -0.046964474 -0.056438174 0.030643633 0.006680056
0.023367496 0.003809209 -0.006632729 0.0059684664 0.051284213 -0.006871869 0.059510972 -0.059248555
0.030570298 0.012110281 0.025442686 0.037601575 0.022663347 0.008818586 -0.019994752 0.028530004
0.055911105 -0.03774876 -0.058529973 0.017393854 -0.030840686 0.008861625 -0.0012345279 0.01496017
-0.05839579 -0.00688585 -0.024204656 0.013088068 0.00021716622 -0.019581676 -0.038281266 0.007255487
0.055031277 -0.0036705367 0.026418434 0.054404467 0.048806377 -0.000564023 -0.058019456 -0.044222903
0.036139943 -0.0014453211 -0.020053132 0.0066150976 -0.019651314 0.0060213497 0.05565399 -0.017066764
0.0028813807 0.058241624 0.04969536 -0.019981824 0.0021422347 0.026486382 -0.033589914 0.05889816
0.015580965 -0.056107916 0.019525154 -0.034715105 0.019778362 0.003660975 -0.03502716 0.050437413
0.024492154 -0.029339712 0.018899273 -0.04785524 -0.015331193 -0.041330762 0.012588167 0.058133483
0.031339824 0.029842885 0.025777116 -0.05662935 -0.032300536 -0.036696605 -0.03363298 -0.020851936
-0.022584127 -0.003925022 0.014616707 0.029011989 0.006122681 -0.00576382 0.0170236 -0.0230134
00000000: 6dfc 9dbc b42a 36bd 7518 a93c 07e1 a63c
00000010: b0e8 413d aae2 483c fdca 153d a2bc d23c
00000020: 595e 3fbc c0a1 343b a15b 1d3d 1982 5bbd
00000030: e030 a6bc a24a 27bd d01c 753d 20c8 0fbd
00000040: 4ed8 2cbd 9c89 d73c d51d 13bd 7e6d ef3c
00000050: 2314 06bc 117c d63c 1d7c 19bc f3e4 943d
00000060: bb06 81bd 633a 5a3d 0dc7 813c fb1a 90bc
00000070: 0b6a 8c3c b774 cdb8 8670 563b af04 283b
00000080: ca44 9dbd 0f05 57bd 169c c6bc 91f5 8fbc
00000090: a694 38bb 4105 273d 0584 643d 15ac b2bc
000000a0: d2fa 53bc d7b9 ad3c f3f0 7dbd a2c4 47bd
000000b0: d6f0 8b3b 89a0 d43c c362 853d 2c1b 723d
000000c0: 02b9 113d a453 6c3b 46ce 46bd d829 3c3d
000000d0: d6a6 313d 9f2f cbbc 14d2 393c fc83 f0bc
000000e0: b753 50bd f06b e1bc 45c0 65bc c12d 733d
000000f0: 0613 e03b 80da 59bd 2763 173d 06d7 77bd
00000100: 7fe6 5cbc 11b9 2ebd 670b 25bd 7197 b93b
00000110: d9fb 993c 2e6c 7f3c 50c5 7f3d f842 353d
00000120: d6dc 3bbd eebe 49bc f1bf 28bd 1fc1 cd3c
00000130: 90c1 0abc d1bb 373d 63bd 043c c319 a2bc
00000140: da43 33bd 95d8 133c 6001 00bc 8e10 f3bc
00000150: c214 bc3c 7cb8 41bd 3411 fcbc 6bf5 de3c
00000160: fdcd 09bd 0813 cf3c 359a 013c c2ee 00bd
00000170: cc33 84bc 23f4 c9bc 3af3 f33c ea25 ee3c
00000180: 9832 39bd 3b19 d5bc fddc fc3c 9f31 25bd
00000190: 8b7d 08bd dabf 1a3d 6f2a ffbb b507 913d
000001a0: 0e30 81bd 2b83 ea3b 3aaa e0bc 9533 b13b
000001b0: de65 6bba ac99 093d 18e7 00bd fd91 973d
000001c0: 059d a53b d410 1b3d af40 143c 933f 91bd
000001d0: 5c26 8bbd e873 46bd 4e28 b53c 59c9 4cbd
000001e0: 7130 f3bc 53e0 fabc 7e83 0cbd b13f 073d
000001f0: 2f71 e93c 3342 7dbd 4fa6 e0bc a839 28bd
00000200: ea61 1bba 16c2 323b 2f82 d33c 8033 01bd
00000210: eb08 efbb 7c7e b3bc 9b77 ef3c d6e7 25bd
00000220: 8a60 823c 5344 4b3c d42f d53c 39ed 803d
00000230: 1b86 493d 523f cc3c d11a e33c 9be5 c53c
00000240: 895d 063d 8f4b 1f3d 5c2f 49bd db4a 2abd
00000250: 784e 69bd 0c0f 63bd e1d5 76bd f086 37bd
00000260: 36e7 6ebd e2de 5e3d 116f e93b 233f 65bd
00000270: 4bbc 293d 2dd0 12bd 40d6 073d c84a 82bc
00000280: 991a 213d a7ea 323d f0a3 3cbd 0c9a 85bc
00000290: d25d 40bd b72b 67bd 5b08 fb3c 5fe4 da3b
000002a0: 316d bf3c eca3 793b 5d57 d9bb 2093 c33b
000002b0: 650f 523d 6a2d e1bb c7c1 733d 9dae 72bd
000002c0: 906e fa3c 336a 463c 2e6d d03c 1c04 1a3d
000002d0: 7ca8 b93c d57b 103c 09cc a3bc c1b7 e93c
000002e0: 0b03 653d 729e 1abd 20bd 6fbd 8e7d 8e3c
000002f0: 9ba5 fcbc 5930 113c e2cf a1ba 801b 753c
00000300: 6d30 6fbd b2a2 e1bb d848 c6bc 566f 563c
00000310: 1db7 6339 c069 a0bc d1cc 1cbd 70bf ed3b
00000320: 7a68 613d 638d 70bb 796b d83c 38d7 5e3d
00000330: 32e9 473d f1da 13ba cfa5 6dbd 1323 35bd
00000340: 7a07 143d ee70 bdba 7746 a4bc 76c3 d83b
00000350: cbfb a0bc be4e c53b 70f5 633d 99cf 8bbc
00000360: 8cd5 3c3b c58e 6e3d 5d8d 4b3d ecb0 a3bc
00000370: bc64 0c3b f8f9 d83c 9495 09bd 323f 713d
00000380: 4e47 7f3c 6ad1 65bd 37f3 9f3c 6d31 0ebd
00000390: 3b06 a23c f8ec 6f3b a478 0fbd 7697 4e3d
000003a0: c5a3 c83c d659 f0bc a6d2 9a3c db03 44bd
000003b0: af2f 7bbc 724a 29bd 993e 4e3c 601d 6e3d
000003c0: 305e 003d 1179 f43c 882a d33c 2df4 67bd
000003d0: 914d 04bd 2e4f 16bd bcc2 09bd aed1 aabc
000003e0: 5902 b9bc 799d 80bb ea7a 6f3c 8daa ed3c
000003f0: c5a0 c83b 6dde bcbb 1475 8b3c 9986 bcbc

fusion_net.0.bias f4 [32]
0.015111854 -0.0046513244 -0.03431246 0.03679263 0.040093433 0.058597248 -0.0011648553 0.030344097
-0.0028393548 -0.01639472 0.0063662785 -0.032943945 -9.1804584e-05 -0.012763839 -0.028488476 -0.053394813
-0.01841532 -0.05451054 -0.015565907 -0.012942279 0.009224455 0.009095345 -0.03675915 -0.002127579
-0.018210104 0.00062595634 -0.056970257 0.012054683 0.026446816 0.0026712902 -0.0017730242 0.060147252
00000000: b697 773c 236a 98bb 398b 0cbd deb3 163d
00000010: 0339 243d ab03 703d 0fae 98ba 2f94 f83c
00000020: 7814 3abb 384e 86bc 379c d03b 3bf0 06bd
00000030: 3687 c0b8 6c1f 51bc aa60 e9bc 85b4 5abd
00000040: badb 96bc 7246 5fbd 2508 7fbc da0b 54bc
00000050: 2b22 173c a404 153c c390 16bd da6e 0bbb
00000060: 5b2d 95bc 3817 243a a559 69bd 0181 453c
00000070: fea6 d83c d010 2f3b d264 e8ba f75c 763d

fusion_net.2.weight f4 [32, 32]
0.15486868 -0.010199981 0.10392829 -0.12072159 -0.10413971 0.030359382 -0.026914215 -0.03399937
-0.014953199 0.0094430605 -0.07889651 -0.07641378 -0.10085628 0.1417241 -0.13236384 0.13312384
0.0775338 0.041499425 -0.06957667 0.017952543 0.004046746 -0.061210707 0.15691057 -0.019184561
0.087330356 0.025064176 0.17303196 -0.015855186 -0.07780153 -0.06109821 0.12916455 -0.06421438
0.002746567 0.020295685 -0.08038599 -0.076550975 0.12429547 0.0027040916 -0.04025918 -0.015481303
-0.12322121 0.004237346 -0.10174866 0.117776915 0.0913737 -0.017881438 0.09070299 -0.10448615
0.09078541 -0.09868192 -0.06127457 0.042054106 0.023377651 -0.10045972 0.0081745535 -0.00844125
-0.06986861 -0.074842595 0.04654037 0.05526631 0.1049359 -0.005648253 -0.016744664 -0.051216777
-0.122251876 -0.015849056 -0.003114098 0.07425325 -0.056119535 -0.0020686928 -0.0230222 0.12624523
-0.067412026 -0.06659707 0.1365067 -0.14703365 0.079918176 -0.055681337 0.08242131 0.0027945386
0.05335771 0.052452654 0.00049822265 -0.11046409 0.05043401 0.12033611 0.034366746 -0.03726481
-0.14466007 0.077572875 0.013547495 0.024748418 -0.058266602 0.092109516 -0.09617573 0.00428483
-0.12768424 0.04597399 -0.12121256 0.11570222 0.06414504 -0.050117064 -0.06125929 -0.036988273
-0.08803472 0.07905529 0.02575473 -0.08128767 -0.01723418 -0.048351478 -0.10072101 -0.047009673
-0.1412395 -0.13691093 -0.06518214 -0.08961003 0.1446512 -0.046630103 -0.021430243 -0.057569154
0.08650381 -0.003588801 0.102047436 0.13306877 -0.13050354 0.029197361 0.114895545 -0.00864831
-0.13629155 -0.09977017 0.034375284 0.003609015 -0.040113907 -0.13263436 -0.068453975 0.053609584
-0.092162035 -0.13461058 -0.10213776 -0.137272 0.017439911 -0.023256322 0.0006770979 -0.057546314
-0.12425976 0.13999854 0.008928023 -0.11950979 0.01869752 -3.9637824e-10 -0.0008839285 0.06538348
-0.0346067 0.026020693 3.7390733e-37 -0.13152775 -0.027210807 -0.017745767 -0.03444157 -0.08865552
-0.12124302 0.050527494 -0.012736782 -0.11461769 -0.074796036 -0.013782982 -0.088169865 0.04972091
-0.07997556 -0.009015089 -0.08561827 -0.004599389 -0.048577618 0.11490932 0.012489333 -0.0003977442
0.053052995 -0.02845604 0.059595287 -0.032570843 -0.13430706 0.17813572 -0.12779844 0.10275408
0.13249922 0.05164577 0.08529351 -0.083546 0.13145754 0.013068587 -0.037005834 -0.037002116
-0.1189499 0.11418081 -0.003002886 -1.36e-43 0.14615278 0.044836216 0.058440026 0.028585002
0.04918005 -0.04920885 -0.14555469 -0.0057107084 -0.011386528 0.10735865 -0.05363644 -0.11670671
0.06591524 0.120466486 0.05856593 0.077142864 -0.12855096 -0.0016601351 -0.10871524 0.017430281
-0.10934387 0.12040544 -0.13465382 0.05141917 0.029387698 -0.07349428 -0.0731301 -0.1301562
-0.027581125 0.08063157 0.083032645 -0.02174288 0.15067342 0.006606221 -0.022528842 0.13303123
0.12860347 -0.1445585 0.09049281 -0.07123185 0.10033993 -0.09024473 -0.00057748845 -0.14499098
-0.032315716 0.06726982 0.0070774714 0.112666495 0.076298214 -0.07696956 -0.13008364 -0.117331356
-0.044689015 -0.08918957 -0.07946231 0.020341896 0.07290075 0.07045023 0.07962433 -0.1277358
00000000: e595 1e3e d21d 27bc 5bd8 d43d e23c f7bd
00000010: 3347 d5bd 3db4 f83c 337b dcbc ec42 0bbd
00000020: 43fe 74bc 11b7 1a3c 7e94 a1bd d47e 9cbd
00000030: bd8d cebd 1f20 113e 638a 07be 9e51 083e
00000040: 0aca 9e3d 4dfb 293d 377e 8ebd 3611 933c
00000050: 919a 843b 14b8 7abd 2aad 203e f128 9dbc
00000060: 42da b23d 6353 cd3c 4a2f 313e bce2 81bc
00000070: 6956 9fbd 1e42 7abd b643 043e d482 83bd
00000080: bfff 333b 2343 a63c 69a1 a4bd c2c6 9cbd
00000090: a08e fe3d 2137 313b cfe6 24bd 4ba5 7dbc
000000a0: 675b fcbd 6fd9 8a3b 9a61 d0bd 0635 f13d
000000b0: 2222 bb3d 187c 92bc 7dc2 b93d d6fc d5bd
000000c0: b3ed b93d bf19 cabd 0bfb 7abd ed40 2c3d
000000d0: 7d82 bf3c d3bd cdbd 90ee 053c 2b4d 0abc
000000e0: 4617 8fbd 1347 99bd 1da1 3e3d ed5e 623d
000000f0: a2e8 d63d fb14 b9bb 1b2c 89bc afc8 51bd
00000100: 315f fabd e1d5 81bc e515 4cbb 1712 983d
00000110: 99dd 65bd e892 07bb 0e99 bcbc 6e46 013e
00000120: 510f 8abd 0b64 88bd 6ac8 0b3e fd8f 16be
00000130: 24ac a33d 1d12 64bd 81cc a83d 9424 373b
00000140: 9d8d 5a3d 98d8 563d 289b 023a ff3a e2bd
00000150: e493 4e3d c772 f63d 25c4 0c3d fca2 18bd
00000160: c521 14be 87de 9e3d 50f6 5d3c 32bd ca3c
00000170: f6a8 6ebd eaa3 bc3d c8f7 c4bd c267 8c3b
00000180: a8bf 02be 394f 3c3d 4a3e f8bd 49f5 ec3d
00000190: 7a5e 833d 8d47 4dbd 05eb 7abd 0481 17bd
000001a0: 8c4b b4bd bde7 a13d 95fb d23c 267a a6bd
000001b0: b22e 8dbc 330c 46bd d146 cebd 378d 40bd
000001c0: 16a1 10be 6132 0cbe 377e 85bd 7785 b7bd
000001d0: 721f 143e 35ff 3ebd 7a8e afbc a2cd 6bbd
000001e0: e928 b13d 1732 6bbb 3ffe d03d 2e43 083e
000001f0: b8a2 05be 4e2f ef3c 5b4e eb3d a4b1 0dbc
00000200: 0390 0bbe 4e54 ccbd 19cd 0c3d 3985 6c3b
00000210: 7b4e 24bd 4dd1 07be 9931 8cbd b995 5b3d
00000220: 73bf bcbd 5bd7 09be 9a2d d1bd 0891 0cbe
00000230: 25de 8e3c 0b84 bebc 457f 313a afb5 6bbd
00000240: e77b febd c75b 0f3e d846 123c 8cc1 f4bd
00000250: 8b2b 993c 47e9 d9af 70b7 67ba c6e7 853d
00000260: c1bf 0dbd 5929 d53c d877 fe02 36af 06be
00000270: 33e9 debc 925f 91bc 9b12 0dbd 0691 b5bd
00000280: 434e f8bd ebf5 4e3d f0ad 50bc aebc eabd
00000290: aa2e 99bd 04d2 61bc 6792 b4bd 27a8 4b3d
000002a0: 3aca a3bd 06b4 13bc a258 afbd 79b6 96bb
000002b0: 53f9 46bd 9455 eb3d 0fa0 4c3c 5388 d0b9
000002c0: 194e 593d a41c e9bc 301a 743d 0169 05bd
000002d0: ca87 09be 3669 363e 98dd 02be bb70 d23d
000002e0: e0ad 073e 848a 533d 5dae ae3d 2a1a abbd
000002f0: ce9c 063e a01d 563c 6e93 17bd 888f 17bd
00000300: 019c f3bd a1d7 e93d 11cc 44bb 6100 0080
00000310: 13a9 153e 2ea6 373d cf5e 6f3d 182b ea3c
00000320: 0571 493d 388f 49bd 4a0c 15be e520 bbbb
00000330: 8f8e 3abc dade db3d e2b1 5bbd ed03 efbd
00000340: 92fe 863d 22b7 f63d d4e2 6f3d 14fd 9d3d
00000350: dda2 03be e498 d9ba 19a6 debd f3c9 8e3c
00000360: aeef dfbd 2197 f63d b1e2 09be e89c 523d
00000370: 78be f03c 2b84 96bd 3cc5 95bd ab47 05be
00000380: d0f1 e1bc 2a22 a53d 050d aa3d 201e b2bc
00000390: 224a 1a3e 0079 d83b 688e b8bc 5739 083e
000003a0: a1b0 033e 2507 14be 4b54 b93d 01e2 91bd
000003b0: 057f cd3d 3bd2 b8bd 9862 17ba 8478 14be
000003c0: 7c5d 04bd c2c4 893d 22ea e73b b1bd e63d
000003d0: 3d42 9c3d 37a2 9dbd a534 05be 6c4b f0bd
000003e0: d40b 37bd 05a9 b6bd 23bd a2bd 0ca4 a63c
000003f0: fd4c 953d 3648 903d 1512 a33d 2ccd 02be
